{"modelTopology": {"keras_version": "2.1.5", "backend": "tensorflow", "model_config": {"class_name": "Sequential", "config": [{"class_name": "Conv2D", "config": {"bias_initializer": {"class_name": "Zeros", "config": {}}, "activation": "linear", "dtype": "float32", "batch_input_shape": [null, 28, 28, 1], "name": "conv2d_5", "dilation_rate": [1, 1], "trainable": true, "activity_regularizer": null, "data_format": "channels_last", "strides": [1, 1], "filters": 32, "use_bias": true, "kernel_constraint": null, "bias_constraint": null, "kernel_initializer": {"class_name": "VarianceScaling", "config": {"scale": 1.0, "mode": "fan_avg", "seed": null, "distribution": "uniform"}}, "bias_regularizer": null, "kernel_regularizer": null, "padding": "valid", "kernel_size": [3, 3]}}, {"class_name": "Activation", "config": {"activation": "relu", "trainable": true, "name": "activation_6"}}, {"class_name": "Conv2D", "config": {"bias_initializer": {"class_name": "Zeros", "config": {}}, "activation": "linear", "activity_regularizer": null, "name": "conv2d_6", "dilation_rate": [1, 1], "trainable": true, "data_format": "channels_last", "strides": [2, 2], "filters": 64, "use_bias": true, "kernel_constraint": null, "bias_constraint": null, "kernel_initializer": {"class_name": "VarianceScaling", "config": {"scale": 1.0, "mode": "fan_avg", "seed": null, "distribution": "uniform"}}, "bias_regularizer": null, "kernel_regularizer": null, "padding": "valid", "kernel_size": [3, 3]}}, {"class_name": "Activation", "config": {"activation": "relu", "trainable": true, "name": "activation_7"}}, {"class_name": "MaxPooling2D", "config": {"strides": [2, 2], "pool_size": [2, 2], "name": "max_pooling2d_3", "trainable": true, "data_format": "channels_last", "padding": "valid"}}, {"class_name": "BatchNormalization", "config": {"center": true, "gamma_constraint": null, "epsilon": 0.001, "name": "batch_normalization_4", "beta_constraint": null, "trainable": true, "gamma_regularizer": null, "gamma_initializer": {"class_name": "Ones", "config": {}}, "moving_mean_initializer": {"class_name": "Zeros", "config": {}}, "moving_variance_initializer": {"class_name": "Ones", "config": {}}, "scale": true, "momentum": 0.99, "beta_regularizer": null, "axis": -1, "beta_initializer": {"class_name": "Zeros", "config": {}}}}, {"class_name": "Conv2D", "config": {"bias_initializer": {"class_name": "Zeros", "config": {}}, "activation": "linear", "activity_regularizer": null, "name": "conv2d_7", "dilation_rate": [1, 1], "trainable": true, "data_format": "channels_last", "strides": [1, 1], "filters": 128, "use_bias": true, "kernel_constraint": null, "bias_constraint": null, "kernel_initializer": {"class_name": "VarianceScaling", "config": {"scale": 1.0, "mode": "fan_avg", "seed": null, "distribution": "uniform"}}, "bias_regularizer": null, "kernel_regularizer": null, "padding": "valid", "kernel_size": [3, 3]}}, {"class_name": "Activation", "config": {"activation": "relu", "trainable": true, "name": "activation_8"}}, {"class_name": "Conv2D", "config": {"bias_initializer": {"class_name": "Zeros", "config": {}}, "activation": "linear", "activity_regularizer": null, "name": "conv2d_8", "dilation_rate": [1, 1], "trainable": true, "data_format": "channels_last", "strides": [1, 1], "filters": 256, "use_bias": true, "kernel_constraint": null, "bias_constraint": null, "kernel_initializer": {"class_name": "VarianceScaling", "config": {"scale": 1.0, "mode": "fan_avg", "seed": null, "distribution": "uniform"}}, "bias_regularizer": null, "kernel_regularizer": null, "padding": "valid", "kernel_size": [3, 3]}}, {"class_name": "Activation", "config": {"activation": "relu", "trainable": true, "name": "activation_9"}}, {"class_name": "MaxPooling2D", "config": {"strides": [2, 2], "pool_size": [2, 2], "name": "max_pooling2d_4", "trainable": true, "data_format": "channels_last", "padding": "valid"}}, {"class_name": "BatchNormalization", "config": {"center": true, "gamma_constraint": null, "epsilon": 0.001, "name": "batch_normalization_5", "beta_constraint": null, "trainable": true, "gamma_regularizer": null, "gamma_initializer": {"class_name": "Ones", "config": {}}, "moving_mean_initializer": {"class_name": "Zeros", "config": {}}, "moving_variance_initializer": {"class_name": "Ones", "config": {}}, "scale": true, "momentum": 0.99, "beta_regularizer": null, "axis": -1, "beta_initializer": {"class_name": "Zeros", "config": {}}}}, {"class_name": "Flatten", "config": {"trainable": true, "name": "flatten_2"}}, {"class_name": "Dense", "config": {"bias_initializer": {"class_name": "Zeros", "config": {}}, "activation": "linear", "activity_regularizer": null, "name": "dense_3", "kernel_constraint": null, "trainable": true, "use_bias": true, "bias_constraint": null, "units": 128, "kernel_initializer": {"class_name": "VarianceScaling", "config": {"scale": 1.0, "mode": "fan_avg", "seed": null, "distribution": "uniform"}}, "kernel_regularizer": null, "bias_regularizer": null}}, {"class_name": "Activation", "config": {"activation": "relu", "trainable": true, "name": "activation_10"}}, {"class_name": "BatchNormalization", "config": {"center": true, "gamma_constraint": null, "epsilon": 0.001, "name": "batch_normalization_6", "beta_constraint": null, "trainable": true, "gamma_regularizer": null, "gamma_initializer": {"class_name": "Ones", "config": {}}, "moving_mean_initializer": {"class_name": "Zeros", "config": {}}, "moving_variance_initializer": {"class_name": "Ones", "config": {}}, "scale": true, "momentum": 0.99, "beta_regularizer": null, "axis": -1, "beta_initializer": {"class_name": "Zeros", "config": {}}}}, {"class_name": "Dense", "config": {"bias_initializer": {"class_name": "Zeros", "config": {}}, "activation": "softmax", "activity_regularizer": null, "name": "dense_4", "kernel_constraint": null, "trainable": true, "use_bias": true, "bias_constraint": null, "units": 10, "kernel_initializer": {"class_name": "VarianceScaling", "config": {"scale": 1.0, "mode": "fan_avg", "seed": null, "distribution": "uniform"}}, "kernel_regularizer": null, "bias_regularizer": null}}]}, "training_config": {"loss_weights": null, "optimizer_config": {"class_name": "Adam", "config": {"amsgrad": false, "beta_2": 0.9990000128746033, "epsilon": 1e-07, "beta_1": 0.8999999761581421, "decay": 0.0, "lr": 9.999999747378752e-06}}, "sample_weight_mode": null, "loss": "categorical_crossentropy", "metrics": []}}, "weightsManifest": [{"paths": ["group1-shard1of1"], "weights": [{"name": "batch_normalization_4/gamma", "shape": [64], "dtype": "float32"}, {"name": "batch_normalization_4/beta", "shape": [64], "dtype": "float32"}, {"name": "batch_normalization_4/moving_mean", "shape": [64], "dtype": "float32"}, {"name": "batch_normalization_4/moving_variance", "shape": [64], "dtype": "float32"}]}, {"paths": ["group2-shard1of1"], "weights": [{"name": "batch_normalization_5/gamma", "shape": [256], "dtype": "float32"}, {"name": "batch_normalization_5/beta", "shape": [256], "dtype": "float32"}, {"name": "batch_normalization_5/moving_mean", "shape": [256], "dtype": "float32"}, {"name": "batch_normalization_5/moving_variance", "shape": [256], "dtype": "float32"}]}, {"paths": ["group3-shard1of1"], "weights": [{"name": "batch_normalization_6/gamma", "shape": [128], "dtype": "float32"}, {"name": "batch_normalization_6/beta", "shape": [128], "dtype": "float32"}, {"name": "batch_normalization_6/moving_mean", "shape": [128], "dtype": "float32"}, {"name": "batch_normalization_6/moving_variance", "shape": [128], "dtype": "float32"}]}, {"paths": ["group4-shard1of1"], "weights": [{"name": "conv2d_5/kernel", "shape": [3, 3, 1, 32], "dtype": "float32"}, {"name": "conv2d_5/bias", "shape": [32], "dtype": "float32"}]}, {"paths": ["group5-shard1of1"], "weights": [{"name": "conv2d_6/kernel", "shape": [3, 3, 32, 64], "dtype": "float32"}, {"name": "conv2d_6/bias", "shape": [64], "dtype": "float32"}]}, {"paths": ["group6-shard1of1"], "weights": [{"name": "conv2d_7/kernel", "shape": [3, 3, 64, 128], "dtype": "float32"}, {"name": "conv2d_7/bias", "shape": [128], "dtype": "float32"}]}, {"paths": ["group7-shard1of1"], "weights": [{"name": "conv2d_8/kernel", "shape": [3, 3, 128, 256], "dtype": "float32"}, {"name": "conv2d_8/bias", "shape": [256], "dtype": "float32"}]}, {"paths": ["group8-shard1of1"], "weights": [{"name": "dense_3/kernel", "shape": [256, 128], "dtype": "float32"}, {"name": "dense_3/bias", "shape": [128], "dtype": "float32"}]}, {"paths": ["group9-shard1of1"], "weights": [{"name": "dense_4/kernel", "shape": [128, 10], "dtype": "float32"}, {"name": "dense_4/bias", "shape": [10], "dtype": "float32"}]}]}